net.pkl (torch_old, 83206 bytes, 6 tensors)

conv1.0.weight f4 [16, 1, 3, 3]
000000 ec 14 b7 3e 2f 56 56 3b cd 35 13 bf bc 59 5e 3e
       0.3575815 0.0032705178 -0.5750397 0.21713918
000010 95 88 ce be 83 1d c7 be 47 eb 20 bf 79 79 e0 be
       -0.4033858 -0.38889703 -0.62859005 -0.43842676
000020 6b 1d 8a 3d 0a b4 7a be 74 e3 d4 be b9 2e bd 3e
       0.06743892 -0.24482742 -0.41579783 0.3694971
000030 9b b9 66 be 63 67 74 3e ad 2c b3 3e 75 13 8f 3e
       -0.2253174 0.23867564 0.34995022 0.27944532
000040 28 00 9a 3e 09 10 6d be 1d b7 7e 3e 59 c1 e4 bd
       0.30078244 -0.23150648 0.2487454 -0.11169691
000050 77 b9 0a 3d 5c 71 c0 3b 55 2b 80 3d 3d a6 29 bf
       0.03386828 0.0058728885 0.06258265 -0.66269284
000060 00 bb a5 3e 6c 92 e1 be e8 90 f7 be 5f 88 87 3e
       0.32369232 -0.44057024 -0.48352742 0.2647123
000070 21 92 9c 3e 01 43 19 bf 95 8b 62 bd 17 16 cb 3d
       0.30580238 -0.59867865 -0.055308897 0.09916323
000080 99 80 26 be 08 d7 c6 bd 2d 61 ba 3e 74 2c 9c 3e
       -0.16259994 -0.09708983 0.36402264 0.30502665
000090 c8 34 d1 be e5 55 72 3e 72 a2 07 3f 86 c4 02 bf
       -0.4086058 0.23665579 0.52982247 -0.5108112
0000a0 f0 e5 a9 bb f7 96 75 3e ba dd c8 be 93 e6 17 bb
       -0.0051848814 0.2398337 -0.39231664 -0.0023178204
0000b0 d4 f9 9e 3e ca bc 2f 3e c0 8b f6 bc 5e 2d 6a be
       0.3104998 0.17161861 -0.030095935 -0.22868869
0000c0 88 75 10 be 58 12 18 3d d0 1b f9 bc 80 e9 0d bb
       -0.14107335 0.03712687 -0.03040877 -0.002165407
0000d0 80 95 ec bd c0 e1 ed bb c7 ef 32 be ce 59 b9 be
       -0.11551952 -0.0072595775 -0.1747428 -0.36201328
0000e0 dc b5 2f be 59 a5 10 bf ff c2 f2 bd a8 6f e0 3e
       -0.17159218 -0.565023 -0.11853599 0.43835187
0000f0 fa 16 59 3e bc 91 8b 3e 97 31 df 3d 49 45 34 be
       0.21200171 0.27259624 0.108981304 -0.17604555
000100 e8 3a 64 3e 10 96 8a be ad d7 87 3e c4 b2 f7 3e
       0.22288096 -0.27067614 0.26531735 0.48378575
000110 fe ae f1 bd c8 b4 1c bf 23 fb 10 bd f9 08 aa 3e
       -0.11800955 -0.6121335 -0.035395753 0.3320997
000120 38 86 d1 bd d6 c9 c6 bd be 65 8c 3e 3a cb 89 bd
       -0.10230678 -0.09706466 0.27421373 -0.067282155
000130 35 3b 62 bd 0c 98 6d 3d 7d 3c 1d 3e 78 bf 2c 3d
       -0.055232245 0.05800633 0.15355106 0.042174786
000140 77 af c7 be b0 3d 02 be e2 1c 7b be bd 2e 8b 3e
       -0.39001057 -0.12718844 -0.24522737 0.27184096
000150 81 83 b4 3c c0 c4 fd 3e 20 f2 7f 3e af 0f 1d 3e
       0.022035362 0.4956417 0.24994707 0.15338014
000160 5c e0 6f 3e 3f 6f 1c bf 37 8a bb be 2d be 7a bf
       0.2342543 -0.6110725 -0.36628887 -0.97946435
000170 5b d6 04 bf 94 14 fc 3e 9a f8 41 3e 16 fe 19 bf
       -0.5188958 0.4923445 0.1894249 -0.6015333
000180 fa b8 d4 bd dd f9 c8 3e c2 aa 2b 3e 39 fb f7 3e
       -0.10386844 0.3925313 0.16764358 0.48433855
000190 3e e3 bb 3e 3e 9c 41 3f 1d 01 db bb 3f 5d 8f 3d
       0.3669681 0.7562903 -0.0066834823 0.07000207
0001a0 83 3f 71 be 12 a1 48 bf 98 66 2e bf 95 aa b7 be
       -0.23559384 -0.78370774 -0.68125296 -0.3587233
0001b0 25 6e 9e be 03 fd 68 3d 75 81 e0 bd 84 31 20 be
       -0.3094341 0.056881916 -0.10962192 -0.15643889
0001c0 34 43 e1 bd 9a 9a c3 3d c1 29 4a 3e 2c 25 61 3e
       -0.10999146 0.09550972 0.1974249 0.21986836
0001d0 72 39 f3 bd b5 01 9f bd 71 57 e3 be 1a 18 c5 be
       -0.11876191 -0.077639975 -0.4440265 -0.3849495
0001e0 f8 e6 c0 3e ea a4 72 3e 80 8f ea 3e 7e 78 1c be
       0.37676215 0.23695722 0.45812607 -0.15280339
0001f0 a3 f6 fd 3b 30 2c 6b 3d be ad 52 3e ff 66 c8 3e
       0.0077503487 0.057415187 0.2057409 0.3914108
000200 c6 89 d3 be cd 79 7d bd 2b b3 09 3e df e7 8c 3d
       -0.4131605 -0.061883736 0.13447253 0.068801634
000210 d1 26 12 bd 5c 5a b0 3e 29 e8 1b 3d 1f 35 4e bd
       -0.03568155 0.3444394 0.038063202 -0.05034363
000220 57 bf 79 3e 6b f4 a2 3d 73 2a c6 3e 3d 69 62 3e
       0.24389397 0.07956775 0.3870426 0.22110458
000230 a7 2e 82 be 97 d8 d9 bd bd 21 f1 be 01 e0 f3 be
       -0.25426218 -0.10637014 -0.47096053 -0.4763184

conv1.0.bias f4 [16]
000000 2e fe 19 3e d2 5e ad be b1 17 1b be 83 fa d4 be
       0.15038368 -0.33861405 -0.15145756 -0.41597375
000010 37 bf 8f be c6 8b 70 be cf e5 6c be 0e 21 9c be
       -0.28075573 -0.2349082 -0.2313454 -0.3049397
000020 8b 1c c9 be c1 b5 48 be 52 95 8f 3d 53 8b 42 bd
       -0.3927959 -0.19600584 0.070109025 -0.04749615
000030 b7 28 b5 be eb d3 66 be 4c aa c9 be 2b e0 95 bd
       -0.35382625 -0.22541778 -0.3938774 -0.07318147

conv2.0.weight f4 [32, 16, 3, 3]
000000 f1 ab 80 be 7b d3 cf bd ce 70 ab bd 41 f4 bd bd
       -0.2513118 -0.101477586 -0.08371125 -0.09275103
000010 55 88 af 3c 68 70 8f bd 72 a7 aa bc 44 6a d9 bd
       0.021427313 -0.07003862 -0.020831797 -0.10615972
000020 4d f5 20 bd 22 19 10 be a9 55 cd bb a4 12 a8 3c
       -0.039296437 -0.14072087 -0.006266315 0.020516701
000030 2e 54 f2 3a 3f 76 2f bd 1e f5 77 be 1c e8 c1 bd
       0.0018488222 -0.042837378 -0.24214599 -0.094680995
000040 b2 e2 5c be c1 aa 17 bd 55 46 66 be 5e 5a 0f be
       -0.21570852 -0.037028078 -0.22487767 -0.13999316
000050 09 34 ee bc e4 29 f7 3d 26 74 96 bc 33 b2 48 3d
       -0.029077547 0.12068537 -0.01836593 0.04899807
000060 31 71 85 bc dc 05 fc bc 79 da 2b be d1 03 86 bd
       -0.016289325 -0.030764513 -0.1678256 -0.06543697
000070 d0 ab 15 be e7 cd 02 be 64 1b ca bd eb 9c ad bd
       -0.14616323 -0.12773858 -0.098685056 -0.08477195
000080 1a 84 06 be 4f 0d 12 bd 2f 21 1a be e7 67 ce bd
       -0.1313633 -0.035657223 -0.15051721 -0.100784115
000090 89 07 8e bd cd c1 40 bd cc 83 96 bd 36 e9 b3 bd
       -0.06935031 -0.047059823 -0.07349357 -0.08784716
0000a0 5e bc 0d 3d e9 31 12 bd 65 f9 f2 3b 2a 1f e4 bd
       0.03460347 -0.03569213 0.007414984 -0.111387566
0000b0 ba c1 2a 3d 09 fe 86 3d a2 2a 20 3d f1 87 84 3d
       0.04168866 0.06591422 0.039103158 0.06471241
0000c0 26 a4 53 bd 98 2c 3d bc e0 70 ff 3c c0 32 b8 bb
       -0.051670216 -0.0115462765 0.031181753 -0.0056212842
0000d0 66 ba 75 3d 80 c3 b0 bb dc b1 be bd a0 c0 f1 ba
       0.059992217 -0.005394399 -0.09311268 -0.0018444248
0000e0 38 60 68 bd 78 b4 c4 bd fd 7c bd bc 4b 7c 0b be
       -0.056732386 -0.09604734 -0.023130888 -0.13621633
0000f0 db da ae bd 9d 29 36 be 0a 24 f4 bc 91 55 1f be
       -0.08537837 -0.17789312 -0.029802341 -0.15559985
000100 d7 d3 26 be 64 52 7e bd 17 20 3a 3d 8b f5 c8 3d
       -0.16291748 -0.062090293 0.04544076 0.098124586
000110 96 69 ae bd 7c 33 13 be f4 b6 63 be d6 56 d7 bd
       -0.08516233 -0.14375108 -0.2223776 -0.105146095
000120 d8 91 55 3c d2 c3 eb 3d b5 66 cc 3d 3c 5c 21 3e
       0.01303526 0.11511959 0.09980527 0.15757841
000130 ce cf 1a 3e e2 92 6e 3d 28 c2 b3 bd 3d 08 dd bd
       0.15118334 0.058245547 -0.08777267 -0.10792587
000140 42 33 99 bd 73 e1 7b bd c5 a8 aa bd 94 44 f5 3c
       -0.0748048 -0.061494302 -0.083329715 0.029939927
000150 eb 8a 28 3c 57 34 37 3c bd eb e8 bd ce f6 8e 3c
       0.010287027 0.011181912 -0.113730885 0.01745167
000160 1b 8d 33 bd f7 48 22 be f4 ef 19 bd b5 92 42 bc
       -0.04383574 -0.15848146 -0.037582353 -0.011875798
000170 ea bd 54 be c8 ce 79 be af 3b 13 be f7 b6 11 be
       -0.20775571 -0.24395287 -0.14378236 -0.14229952
000180 af 33 28 be e6 3d 4e be 18 d4 1b be e2 49 21 be
       -0.16425966 -0.201408 -0.15217626 -0.1575084
000190 1f 97 95 bd 6c 82 0d bd 83 6a 66 3a a5 ec e9 bb
       -0.07304215 -0.034548208 0.0008789675 -0.007138806
0001a0 7c 3b d1 3b 74 2d 30 3c 88 30 60 3d 66 b0 98 bb
       0.006385265 0.010753024 0.054733783 -0.0046597
0001b0 c1 df 6c bd c3 99 b4 bd 07 8a 8c bd 4d d1 4a be
       -0.057830576 -0.0881839 -0.06862264 -0.19806404
0001c0 52 64 72 bd 52 40 09 bd de bd cc bd 0a 34 e3 bd
       -0.059177704 -0.033508606 -0.09997152 -0.1109391
0001d0 96 f3 d4 bd 31 14 41 3d 74 5e 57 bc 3f b7 cd bd
       -0.10398023 0.047138397 -0.013145078 -0.10044717
0001e0 80 4d 90 bd 17 49 8a bd e8 95 71 be 87 0c 7c be
       -0.07046032 -0.06752222 -0.23592341 -0.24614154
0001f0 ef 6a b8 bd e3 2e 46 be ee df 87 bd cc 7d 79 bd
       -0.09004771 -0.19353823 -0.06634508 -0.060910985
000200 50 e9 55 3c b1 9b 2c be 1f 6b 09 bd 45 de a7 bd
       0.013056114 -0.16856267 -0.033549424 -0.081966914
000210 ff 39 04 be 48 df 3b be 7c 96 39 be 18 37 75 be
       -0.12912749 -0.18346894 -0.18123811 -0.23946798
000220 2c 06 3f be a6 10 0c bd e5 00 46 3d ab 63 e4 3c
       -0.18654698 -0.034195565 0.048340697 0.027879557
000230 5f e5 9d bc 92 a1 1e 3d 8b 6d 0a 3d 13 d9 12 be
       -0.019274412 0.038728304 0.033795875 -0.1434062
000240 bb a3 15 3d c7 7e 9a bd f3 25 96 bd a6 5a 87 bd
       0.0365331 -0.07543712 -0.07331457 -0.06609087
000250 35 ed b6 bb 4a 3d 16 bd 80 02 0d be 0a 1e aa bc
       -0.0055824765 -0.036679544 -0.13770485 -0.020766277
000260 c9 93 05 be ad eb 9c bd 35 49 20 bd 3c 9b 99 3d
       -0.13044657 -0.07662139 -0.039132316 0.07500312
000270 01 10 e6 bd 3d b5 6a bd e2 22 9d bc 80 55 b3 bd
       -0.11233521 -0.05730175 -0.019181672 -0.08756542
000280 3d 91 10 be 17 0f 91 3a fb 0e ec 3d 45 13 4a bd
       -0.14117904 0.0011067119 0.11526295 -0.049334783
000290 b3 ba 4b be b8 b1 ab 3d 26 e4 cc 3d 9a 01 31 be
       -0.19895439 0.083835065 0.10004453 -0.17285767
0002a0 39 a9 8c 3d 25 ee 21 be 66 de 47 be c1 2d cd bd
       0.06868214 -0.15813501 -0.19518432 -0.100184925
0002b0 1c 03 5b bd 3d a0 28 be 1e b2 67 bd 00 a4 98 bd
       -0.053469762 -0.16467376 -0.05656635 -0.074531555
0002c0 ee f0 9a be a9 1a 2b 3b f4 0b 41 be 9c 6e d6 bc
       -0.3026194 0.002610842 -0.18852216 -0.02617579
0002d0 b2 56 14 3e 12 b6 77 bd da 40 c4 bc bb 3d ca bd
       0.14486197 -0.06047637 -0.023956705 -0.098750554
0002e0 4e 72 b6 bd 06 6e 5b bb ba cd 08 be f3 88 c1 bd
       -0.08908521 -0.0033482327 -0.13359728 -0.09449949
0002f0 c3 1b 5b 3c 78 76 01 bc ec 51 92 bc 5e 54 65 3d
       0.013373318 -0.00790178 -0.017861329 0.055988662
000300 2b ce 95 bd 56 39 13 3d 3c df 80 3c e0 99 23 3d
       -0.07314714 0.03594335 0.015731446 0.03994167
000310 26 b9 36 3d 92 e9 75 3d 96 f1 3c 3d 34 c8 cb bd
       0.044610165 0.060037203 0.04612883 -0.09950295
000320 a6 06 57 bd b5 58 1d bc 99 0d 1f 3b 77 d4 46 bd
       -0.052496575 -0.009603669 0.002426958 -0.048542466
000330 45 83 da bd 62 98 a1 bd 88 fa 94 bc f0 95 f8 3d
       -0.10669569 -0.07890393 -0.018185869 0.12137973
000340 54 3f 0b be a5 4a c6 3d f7 e2 aa 3c 5a f2 17 bd
       -0.13598377 0.09682206 0.020860178 -0.03709636
000350 18 70 24 be 6f 1d e6 bc 5d 7b 3d bd a1 5d 4c bd
       -0.16058385 -0.028090207 -0.046260227 -0.04989398
000360 e0 c6 14 3d 21 e4 ec bd 6b a9 9c bd d6 03 2e ba
       0.036322474 -0.1156695 -0.076495014 -0.0006638145
000370 78 09 98 bd 8f c7 a6 bd e6 00 02 bd 03 a9 4d b9
       -0.07423681 -0.081435315 -0.031739138 -0.00019613285
000380 82 cc 9c 3c 93 3b 90 bd 70 94 f6 3c 87 82 d1 bd
       0.019140486 -0.07042613 0.030100077 -0.10229974
000390 00 3f 7a 3d 4b b1 51 bd 68 90 70 bd e0 9d c8 bd
       0.061095238 -0.05119447 -0.058731467 -0.09795737
0003a0 42 b2 ca bd bd bf be bd f1 b6 b5 3a ab 84 a0 3c
       -0.09897281 -0.09313915 0.0013863725 0.019594511
0003b0 18 46 3c 3d 02 26 55 bd bf dd 26 be 20 6d 82 bd
       0.045965284 -0.0520382 -0.16295527 -0.0636847
0003c0 26 f6 99 bd 99 d0 20 bd 8e 79 bf bd aa 60 cb 3d
       -0.07517652 -0.039261434 -0.093493566 0.099305466
0003d0 73 e5 84 bd 37 c4 e0 bc f4 b2 c7 3d 02 d0 7a 3d
       -0.064890765 -0.027437313 0.097509295 0.061233528
0003e0 3d 44 0e be 8e d3 f2 bd 24 b6 85 bd 2e ee 40 be
       -0.13893218 -0.11856757 -0.06528881 -0.18840858
0003f0 4a 70 0a be 67 3f c8 bc ce ae b6 bc c5 d2 78 3d
       -0.13519397 -0.024444295 -0.02230015 0.06074788

conv2.0.bias f4 [32]
000000 b9 92 ef bd 0f 6b ab bd 9e 57 0c be 04 5f 3b bd
       -0.11697907 -0.08370029 -0.13705298 -0.04574491
000010 33 6e d0 be 09 10 af be 5f 3a 79 bd 22 53 9d bd
       -0.40709075 -0.3419192 -0.060846683 -0.07681872
000020 83 be 85 bd ef b6 9c bd b5 af 2f be e6 5f 58 be
       -0.06530478 -0.07652079 -0.1715687 -0.21130332
000030 bd d9 8f bd 51 85 a1 be b6 ed e5 bd 6a d7 c8 bd
       -0.07023952 -0.31547025 -0.112269804 -0.09806712
000040 b2 c7 fa bd 40 d3 d0 bd 53 0c 2c be 18 84 6d bd
       -0.1224512 -0.10196543 -0.16801576 -0.057987303
000050 0d fc 98 bd 44 f3 ec bd a7 1f 22 be 67 54 7d bd
       -0.0746995 -0.11569837 -0.15832387 -0.06184807
000060 92 ef 1e be 5f 8a f7 3b 26 27 c8 bd 07 1b 16 be
       -0.15521076 0.007554337 -0.09773092 -0.14658748
000070 68 2b 46 be ee 80 fc bd ac 1d 24 be 9e 34 92 bc
       -0.19352496 -0.12329279 -0.16026944 -0.017847355

out.weight f4 [10, 1568]
000000 cc f9 03 be 30 4a 08 be 31 6a 03 be 9d d3 a2 bc
       -0.12888259 -0.1330955 -0.12833478 -0.019876296
000010 1b bc 31 be b8 fc 57 be c8 a8 ea bd 31 6d 76 bd
       -0.17356913 -0.21092498 -0.11457974 -0.060162727
000020 83 20 19 be 7d 11 44 bd 4b 32 06 3d be 27 a5 3d
       -0.14953808 -0.04786824 0.032762807 0.08064221
000030 c9 5d 1f bc a1 4c a0 bc 1d cb b9 bd 0f 99 48 bd
       -0.00972695 -0.01956779 -0.09071944 -0.048974093
000040 d8 f6 d1 bd cd 8a bb 3d 56 80 33 3e 47 25 05 be
       -0.1025216 0.091573335 0.17529425 -0.13002501
000050 00 18 e3 bc 86 e3 01 bd a8 89 18 be 46 c1 a6 bd
       -0.027721405 -0.031711124 -0.14896262 -0.08142333
000060 39 0a 37 bd f5 cd 5f 3c c3 f3 91 3b 4d 95 14 be
       -0.044687483 0.013659944 0.0044541075 -0.14510079
000070 4b 3e 10 be b4 8d c8 bd 33 b1 ff bd 32 dc 16 be
       -0.14086263 -0.09792653 -0.1248497 -0.14732435
000080 85 ac 23 3d 95 3d a2 bd 96 78 8c bd 99 33 4d be
       0.03995945 -0.07921902 -0.068589374 -0.20039214
000090 37 41 87 bd a5 dc e5 3d 7c db 10 3e 3f 27 2e 3e
       -0.066042356 0.11223725 0.14146227 0.17007159
0000a0 f8 a4 65 bd e0 a0 0f be 05 34 a4 bd 99 45 e4 3d
       -0.05606553 -0.14026213 -0.080177344 0.11146087
0000b0 01 9c b3 3c 16 1e e5 3c ae 98 b9 bd 1d 84 0c be
       0.021924974 0.027968448 -0.090623245 -0.13722272
0000c0 5f 3f 30 bd 8e 7c 82 3b f4 82 de 3b 09 92 3c 3d
       -0.043029185 0.003982133 0.006790513 0.046037707
0000d0 f9 4a e1 bb de 39 b2 bc 18 07 3b bc a5 df c1 3d
       -0.0068753925 -0.021756109 -0.0114152655 0.09466485
0000e0 8f 1c a2 3b d4 17 c2 3d cf a7 ca 3b 14 9b 70 3c
       0.004947252 0.09477201 0.006184555 0.014685411
0000f0 17 53 a7 3c a0 6a 83 bd 23 8b 9c 3c c4 fd 20 3c
       0.020425363 -0.064168215 0.019109314 0.009826127
000100 a1 ed 24 3d 8c 6d 96 3c ce b8 0c bc 48 03 51 3b
       0.040265683 0.018362783 -0.008588983 0.0031892825
000110 2f f1 32 be 0e 1f 7e bc c5 47 1a bc ac 22 c3 bc
       -0.17474817 -0.015510334 -0.009416525 -0.023820244
000120 f8 b7 10 3d d5 5f 45 bd f6 9a e9 bd bc f2 1a be
       0.035331696 -0.048187096 -0.114065096 -0.15131658
000130 8e f1 c5 bb 27 82 a6 bb ce a6 e9 bd 6b 50 9a 3b
       -0.0060407585 -0.0050814333 -0.114087686 0.0047092936
000140 a2 bd 54 3d f9 8c 0c be 9c 1f 92 3b ba bd 47 3e
       0.05193866 -0.13725652 0.0044593345 0.19505969
000150 f3 f2 a6 3d 8f 70 93 3b c4 22 81 3d f8 95 f9 bd
       0.08151808 0.004499502 0.06305459 -0.121868074
000160 4f e8 a1 bd 0e 99 ab 3d 90 29 a0 3c d2 f9 93 3d
       -0.079056375 0.08378802 0.019551069 0.07225384
000170 d3 8c 04 3e 6d 01 38 bd 1e 85 9f bd 72 60 10 bc
       0.12944345 -0.044923235 -0.07789062 -0.008812057
000180 c5 70 9b 3c 25 8f 82 3d 4c a4 ba be c6 92 70 be
       0.018974671 0.06374959 -0.36453474 -0.2349349
000190 c9 eb 7a be 7a 5d 99 bd 65 f3 00 bd 60 f3 f1 bd
       -0.24504007 -0.07488532 -0.03148212 -0.11813998
0001a0 f2 f6 6b be 45 b9 35 3e 38 b2 a9 bd fa 15 ef bd
       -0.23043421 0.17746456 -0.08285946 -0.116741136
0001b0 61 4e c5 bc 0b 6a 09 bd 39 ca 83 bd 26 2f aa be
       -0.024085226 -0.033548396 -0.06435055 -0.33239096
0001c0 11 ea a1 bc 6a 09 e2 bc e7 bc 1a 3e e1 1e d9 bd
       -0.019764932 -0.02759238 0.15111123 -0.10601593
0001d0 a1 e1 a6 be b7 78 0a bf 75 a2 dc be f7 02 1b be
       -0.32594016 -0.54090446 -0.43092695 -0.1513785
0001e0 90 15 a1 be 30 89 08 bf 6f 36 ea be fc d7 a4 be
       -0.31461763 -0.5333433 -0.45744655 -0.32196033
0001f0 bf 51 b0 bf 26 52 06 bf a0 11 c0 be 52 9a 9d bf
       -1.3774947 -0.524691 -0.37513447 -1.231272
000200 33 c2 80 be f1 0b e2 bd cb 51 a6 bd f8 26 47 bf
       -0.25148162 -0.11037434 -0.081210695 -0.77793837
000210 cc 65 ee be 14 fc 27 bf f9 79 46 bf 2c 7c b0 be
       -0.4656204 -0.65619016 -0.77529866 -0.34469736
000220 6f 89 92 bd 5e 35 99 bc 95 9d 9b be 1b 32 0a bc
       -0.0715512 -0.018702205 -0.30393663 -0.008434798
000230 45 e6 19 3c d6 35 a9 bd 2b 66 75 bd a0 69 28 be
       0.009393279 -0.082622215 -0.059911888 -0.16446543
000240 69 12 ab be 47 e3 fb 3c c8 77 55 bd a5 fb 8e be
       -0.33412483 0.030748023 -0.052116185 -0.27926365
000250 5e ec f2 be 6c 46 02 be f9 21 0d be c7 b7 a2 bd
       -0.4744596 -0.12722176 -0.13782491 -0.07945209
000260 8c 6e 70 be f3 b8 61 3c 50 e1 7b be f6 1f 97 be
       -0.2347967 0.0137770055 -0.24597669 -0.29516572
000270 cb 8d 87 be 13 76 2e be cd e9 9a be 1a c8 44 be
       -0.26475367 -0.17037229 -0.302565 -0.19216958
000280 af f8 93 bd 11 cf af be 68 61 36 be 01 39 78 be
       -0.07225167 -0.34337667 -0.17810595 -0.24240495
000290 40 c8 d3 be 70 f8 e8 3d 66 3c c1 3d 86 0e cd bb
       -0.41363716 0.11375511 0.09435348 -0.006257835
0002a0 c0 b6 b0 be a2 76 5f bc ca f1 8d bd 32 14 1a bf
       -0.34514427 -0.013639124 -0.06930883 -0.60187066
0002b0 f4 8d 18 3e c8 a9 56 3e a2 50 0b 3e 33 c2 6b be
       0.14897901 0.20963204 0.13604978 -0.230233
0002c0 ba d5 54 ba 79 80 a8 3d c0 3b de be d4 60 e7 bd
       -0.0008119006 0.08227629 -0.4340496 -0.112977654
0002d0 0a fc 04 bc 7e ed 3c bc a1 50 a4 bd ca 90 b9 3d
       -0.008116731 -0.011531232 -0.08023191 0.090608194
0002e0 50 13 9a 3d f4 6a 21 bf a1 f1 92 bf 5b d4 07 bf
       0.07523215 -0.6305382 -1.1479989 -0.53058404
0002f0 b1 1e 03 be b2 72 18 3d 43 0a 77 be c0 9b d6 be
       -0.12804677 0.037218757 -0.24125008 -0.41915703
000300 9c 18 45 bf e9 44 55 bf 0a 4e 03 bf 98 c6 ff bd
       -0.76990676 -0.83308274 -0.51290953 -0.124890506
000310 fe 49 3d 3c 3d 86 35 be 91 9c 41 be 1c 0e 74 be
       0.011553286 -0.17726989 -0.18907382 -0.23833507
000320 de 58 7f be 38 38 41 be 62 02 77 bc 99 99 90 bd
       -0.24936244 -0.18869102 -0.015076252 -0.070605464
000330 32 9c 92 bd b7 49 7b be 97 06 7c be dd 67 10 3c
       -0.07158698 -0.24539839 -0.24611889 0.008813825
000340 c3 80 d8 bd e6 c6 dd bd 84 7d fc 3b 98 39 af 3c
       -0.10571434 -0.108289525 0.0077053923 0.021389768
000350 1e 67 c5 be 03 3f 02 bf e8 07 70 bf 82 24 81 be
       -0.38555235 -0.508774 -0.93762064 -0.25223166
000360 f4 da a9 3d e6 8d b1 bd 8f aa 96 3d a6 2d ce 3d
       0.08293715 -0.08669643 0.0735675 0.100673005
000370 50 25 bf be 46 0c b4 be d8 ed 55 bc e5 23 3d 3d
       -0.37333155 -0.35165614 -0.013057195 0.04617681
000380 2d 84 23 be 75 ff ef 3d a4 a1 06 bc 4e e5 2a be
       -0.1596839 0.117186464 -0.008217249 -0.16689035
000390 fb ed cf be 14 fe a4 be da f7 6e 3e f8 86 39 bd
       -0.40611252 -0.32225096 0.23336735 -0.04529473
0003a0 a4 d6 8a bc 76 e5 55 bd 9a 02 a4 be 59 0a d7 be
       -0.016948052 -0.052220784 -0.32033235 -0.42000082
0003b0 65 9a ac bd ab 9e 0a be f8 bc fb bc 26 26 6f be
       -0.08427886 -0.1353709 -0.030729756 -0.23354396
0003c0 ee dc 03 bf e4 fc 73 be 96 9e 95 be dc 66 4f bd
       -0.51508987 -0.23826939 -0.29222554 -0.050635204
0003d0 d3 54 f0 bc e9 17 3c bd 20 02 b0 be c8 6a 0d be
       -0.029337322 -0.04592124 -0.3437662 -0.13810265
0003e0 7d 4c 42 be 7a 8b c9 be 52 c6 52 be 73 4a c8 bd
       -0.1897449 -0.39364225 -0.20583466 -0.09779825
0003f0 3c 93 d2 bd 04 6f a5 be 40 11 34 be 43 f1 05 be
       -0.10281989 -0.3231126 -0.17584705 -0.13080315

out.bias f4 [10]
000000 8d 40 11 bd 21 67 95 3e aa 71 11 bd 1a 78 f1 bc
       -0.03546195 0.29180244 -0.03550879 -0.029476214
000010 44 b8 e9 bb ed 39 c3 bd c8 c7 f7 bd d2 10 11 3d
       -0.007132562 -0.09532533 -0.12098652 0.03541643
000020 ed 09 0d be 2d 2f ee bd
       -0.13773318 -0.11630092
